model.tflite (tflite, 131320 bytes, 10 tensors)

arith.constant f4 [64]
00000000: 5dc8 58bc 6d72 07bc a0b5 213d c8a9 c73c
00000010: 3b76 d13d d180 07bc b64a 5f3d 9c3f 3f3d
00000020: 3e06 2fbd d875 0b3d f960 be3d 0aba 4d3d
00000030: 4032 5abc 61d6 63bc 80c5 963d 18ef f9be
00000040: e8cd 133d 3df7 91be 00d6 9c3d 81df 3d3d
00000050: cab8 143d 2a7a 8bbc 9e97 eb3c 4c77 c2be
00000060: a525 eebb e421 bd3d d603 25bb 318c 9c3d
00000070: 8b27 35be 4b8e bd3d e50c 1f3d 83d2 7e3d
00000080: c5db 78be 34ac 833d 8ad4 ac3b 2499 773d
00000090: fd8d 66be ac5c 4bbc 0e61 76bc b9b9 b43c
000000a0: fca7 5cbe 14b8 163d f114 093d c788 133d
000000b0: 86d6 1f3d f41c 4d3d 8a24 143d 233e 4a3d
000000c0: e5f4 a13b 6e0a 9a3d d047 4f3d 5f20 7a3c
000000d0: 1dba 343d 72f0 133d 6ac2 323d f299 5abd
000000e0: 21ab 97bd a825 ab3c e47e 8b3d df36 463d
000000f0: d428 7d3d dc8d 003d 0f9d 953d 1e0d 473d
-0.013231364 -0.008267027 0.03947985 0.02437295 0.10227629 -0.008270458 0.05451461 0.046691522
-0.042730562 0.03404793 0.0929584 0.05022625 -0.013317645 -0.013906092 0.07361889 -0.48815227
0.03608504 -0.2850894 0.07658005 0.046355728 0.03630904 -0.017026026 0.02875882 -0.3798164
-0.007267671 0.0923498 -0.0025179288 0.07643927 -0.17690866 0.09255656 0.038830657 0.06221248
-0.24302585 0.064293295 0.00527436 0.06044878 -0.22515102 -0.012412231 -0.015037788 0.022061216
-0.21548456 0.036796644 0.033467237 0.036019113 0.039022945 0.05007644 0.03616766 0.049375664
0.004942524 0.075215206 0.050605595 0.015266507 0.044122804 0.03611798 0.04364244 -0.05336947
-0.07405687 0.02089198 0.06811312 0.048392173 0.061806515 0.031385288 0.07305347 0.048596494

arith.constant1 f4 [32]
00000000: b3db fc3d 888f c13d 0c61 203d f4a0 9f3d
00000010: 28e2 e83d f866 9d3d ecff b63d bb88 a53d
00000020: 0ef1 ee3d 4fd3 093e f4b5 f03d 973c 903c
00000030: 9394 223d 0138 183e cc66 a83d f945 b13d
00000040: 76bd 51bd 0dff 843d 7714 663b 7834 dfbd
00000050: 5576 c73d 44a1 333d 5c6a bb3d f6f2 8e3c
00000060: 8493 903d 31b7 e23d 36d7 fb3c 3680 c43d
00000070: 1e14 af3d 6334 db3d 9d64 17bc 0588 cc3d
0.12346592 0.094512045 0.03915505 0.07794371 0.11371261 0.07685655 0.08935532 0.0808272
0.11667071 0.13459514 0.11753455 0.017607016 0.039692473 0.14865114 0.08222732 0.08655924
-0.051206075 0.064939596 0.0035107413 -0.108986795 0.09739367 0.043854967 0.09151146 0.017449837
0.070593864 0.11070097 0.030742269 0.09594767 0.08548759 0.10703351 -0.009240297 0.09986881

arith.constant2 f4 [64, 3, 3, 32]
00000000: f6b1 b83c 8fb5 003c 3b74 053d 19f4 e73c
00000010: b2ac b53b 62cc 66bd ec13 f0bc d6f0 b1bc
00000020: d51a 133b 1889 273c 5052 48bd feff 9b3b
00000030: 65a2 d6bb f729 4b3d 3c75 5e3d 11b7 cfbc
00000040: a349 853d 482d a1bd 12af d73c 3f06 973c
00000050: 8d31 b3bd c483 55bd 988f 853d ae0e adbd
00000060: 7252 833c 6ed9 b03c 1e45 50bc 458c 77bd
00000070: 17e2 63bd 52d2 413c 2c4b 02bd 2362 4b3d
00000080: bb34 243d aa1f 683d 9a45 7dba 8b79 2c3d
00000090: 473b 76bd 4923 2ebd d5be 14bd 683d dbbc
000000a0: dacc 6b3d 881f 07bd fc2f bfbd 8a5f acbd
000000b0: 9580 353d 5d39 bcbd 884e 4fbd 4c35 9dbc
000000c0: 0928 553d fc5a 95bc f491 13bc 4a2e efbc
000000d0: 4685 813c 81ca 713b ed3a 94bd ae5c efbc
000000e0: 0a11 37bd 7f0d e9bc b900 443d 6fdf d23c
000000f0: 0026 103d d694 aabc 6bbc 73bc b0fe b8bc
00000100: eeea 5cbd 0683 55bd 9f52 a5bd 6686 123d
00000110: 596a 8c3b b049 8ebd f50a 533d fe9b 4bbd
00000120: 450e e53c 840e 66bc 15b4 4d3d 26e5 863d
00000130: 1e69 2dbd 0f62 e13a 8b12 91bd 8ffd abbd
00000140: 7bfb 58bd e12b 2e3d 5359 c8bd be6c 8ebd
00000150: 3ef4 b93c a658 23bd bc2d 8b3c 5899 743d
00000160: c6f7 e43c 7c4d 733d 30c7 823d 0b16 e1bb
00000170: 1b94 fabc f16e 94bc d65c b73b 4afa 323c
00000180: e506 943c 2bae 08bd c67b 1abd 7d14 32bd
00000190: 3d24 7ebc 58fd 2dbd 8589 23bd 6bb4 80bc
000001a0: e991 873d a108 133d aa61 53bd d726 6abd
000001b0: b303 a73c 96d9 b2bd 19b6 b7bc 4a39 153d
000001c0: a58d 29bd ba66 47bd dc6b 82bd cd7b 47bd
000001d0: 5e35 8c3c 00c2 b8bd 8bb7 3b3d 5898 84bd
000001e0: 3580 28bc 5af0 83bd 6085 7abc f800 a7bd
000001f0: ba0f ebbb b16d 8c3c 3cef 5abd 0879 8bbd
00000200: 4143 273d 2398 b6bd 9d45 9ebd 9549 4f3d
00000210: 01ca 053c 7779 85bd 5727 e3bc 0d25 ff3c
00000220: 1d30 06bd 07ed fcbc 7c6f 3dbd 0c77 d73c
00000230: a976 213d 9d5d 0d3c f5a7 4dbd d4b0 2e3d
00000240: 78c9 083a c0e1 5e3c 0958 adbd e226 89bd
00000250: a670 7b3d d879 943d 58f2 fabb 8b3f 3dbd
00000260: d081 40bd 469e b8bc d216 61bd c8f4 1bbd
00000270: 3c7c c7bd 9d50 713d 42d0 99bd 980f 383d
00000280: f411 aebd 1957 683c ceb9 02bb 4d23 c53b
00000290: 5e52 24bd eb36 2f3c 0690 c1bd d3ee 6cbd
000002a0: 9dbb f8bc af86 b2bd 0f03 8ebd 3b69 033d
000002b0: c9b3 20bd 65ee 423c 69e6 cebc 9559 dcbc
000002c0: d43a 033d 521e b2bd 9f2e 00bc e174 25bd
000002d0: 9f3e a3bd f78b e93c c578 493c 34f6 80bd
000002e0: 9da7 68bc 8097 e0bc 5a3e 313d c72f 1aba
000002f0: 2eda bfbd 9728 1dbd 96a5 02ba f598 843d
00000300: 16e9 c7bd 3275 3e3d 6f07 3abd a84f 563d
00000310: f48b ddbc 312f 37bd d6a1 d4bd 7e3a a5bd
00000320: a028 313d fa86 f5bd 481f b1bd 325d 8abc
00000330: 97f6 edba af92 bebd 1e22 073c 9874 dabd
00000340: ee01 d0bc 73b2 56bd caf6 86bd 0df2 5f3d
00000350: cb44 c5bd 3dc8 633d d3c1 9ebc ea37 443d
00000360: 7ade d43b 1c2a 853c a255 7cbd b6f8 c4bd
00000370: f8dd 9abd b437 293d bb94 0a3d d019 553d
00000380: 11bf 8cbd 2c8e 95bd 5e26 cabd b782 b9bd
00000390: 5e48 35bd 148b 4bbd 74a6 5abd 5a74 49bd
000003a0: 13da 0fbd 1681 c4bd c72b 48bd 0051 8b3d
000003b0: cf5a c8bd ac9b 9dbc 03af 803d 0a7a 013c
000003c0: d9bd 6f3d 4f87 4d3d 2eb1 43bd ce7f a9bd
000003d0: b7b8 21bd 9f0b 093c 5f48 79bd baa3 a6bc
000003e0: c510 6e3d f429 753b c903 79bb c180 883d
000003f0: df89 71bc bccb bbbd ba68 9abd 8a2e b23b
0.022545796 0.007855787 0.03258155 0.028314637 0.0055442685 -0.05634726 -0.029306374 -0.021721285
0.0022446413 0.010225557 -0.048906624 0.0047607413 -0.0065501207 0.049600568 0.054311022 -0.025355848
0.06508186 -0.07869965 0.026328597 0.018435596 -0.087496854 -0.052127615 0.06521529 -0.084500656
0.016030524 0.021588054 -0.012711791 -0.060436506 -0.055635538 0.011829929 -0.03180997 0.049654137
0.04008935 0.056670822 -0.00096615555 0.0421081 -0.060115125 -0.04251412 -0.036314804 -0.02676268
0.05756841 -0.032989055 -0.09335324 -0.0841666 0.04431208 -0.09190629 -0.050612003 -0.019190453
0.052040134 -0.018231861 -0.009006966 -0.029196877 0.01581062 0.0036894383 -0.07237802 -0.029218998
-0.044693984 -0.028448818 0.04785225 0.025741307 0.03519249 -0.020822924 -0.014876465 -0.022582382
-0.053934984 -0.052126907 -0.08072399 0.035772704 0.0042851386 -0.069476485 0.05152412 -0.049709313
0.027960906 -0.014041547 0.050220568 0.06586675 -0.042336576 0.0017195361 -0.07083615 -0.08397972
-0.052974205 0.042522315 -0.09782662 -0.06954335 0.022699472 -0.039879464 0.016989581 0.059716552
0.027950179 0.059400067 0.06385648 -0.006869083 -0.0305882 -0.018119307 0.0055957837 0.010923931
0.018069694 -0.033369225 -0.037715696 -0.04347657 -0.01551157 -0.042477936 -0.03992607 -0.01571103
0.06619627 0.0358969 -0.05160681 -0.057165947 0.020387506 -0.087329075 -0.022425698 0.03643159
-0.04139485 -0.048681952 -0.06368229 -0.04870205 0.017115291 -0.090213776 0.045829337 -0.0647437
-0.010284473 -0.06442328 -0.015290588 -0.08154482 -0.0071735056 0.017142149 -0.053450808 -0.06810194
0.040835623 -0.089157365 -0.077281214 0.050607283 0.008165837 -0.06517308 -0.02772872 0.031145597
-0.03276073 -0.030874742 -0.046248898 0.026301883 0.039419804 0.008628276 -0.050209004 0.042649105
0.00052180095 0.013603628 -0.08464057 -0.066968694 0.061386727 0.07249802 -0.007658284 -0.046203177
-0.0469988 -0.022536408 -0.054953404 -0.03807524 -0.09740493 0.05891477 -0.07510425 0.044936746
-0.08499518 0.014180922 -0.0019947174 0.006016171 -0.040117614 0.010694246 -0.094512984 -0.057844948
-0.030362898 -0.08717095 -0.06934177 0.032082777 -0.039233956 0.011897658 -0.025256352 -0.026898185
0.032038525 -0.086971894 -0.007823615 -0.040394668 -0.079709284 0.028509123 0.01229686 -0.062969595
-0.014200118 -0.02741599 0.043272354 -0.0005881753 -0.09367786 -0.038368788 -0.00049837807 0.06474487
-0.097612545 0.046498485 -0.045417245 0.05232206 -0.027044274 -0.04472274 -0.1038243 -0.08067797
0.043251634 -0.11988635 -0.086485445 -0.016890142 -0.0018155155 -0.093053214 0.00824788 -0.1066677
-0.025391545 -0.052416276 -0.0659004 0.054674197 -0.09632262 0.055610884 -0.019379532 0.047904886
0.006496248 0.01625543 -0.061605103 -0.0961775 -0.075618684 0.04131289 0.033833247 0.05202657
-0.068723805 -0.07302508 -0.09870599 -0.09058135 -0.044258468 -0.049693182 -0.0533814 -0.049183227
-0.03512008 -0.09594934 -0.048869874 0.06802559 -0.09782945 -0.01923927 0.06283381 0.007902632
0.058530662 0.05017787 -0.047776394 -0.0827633 -0.0394828 0.008364587 -0.060860034 -0.020341743
0.05812146 0.003740904 -0.003799664 0.06665183 -0.014742344 -0.091697186 -0.07539506 0.005437677

arith.constant3 f4 [32, 3, 3, 16]
00000000: e6c0 47ba 8ef3 d6bc e41f 393e 603a bb3d
00000010: 583f 31bd 9eb8 d5bc cd44 803d bd4f edbc
00000020: 2dc7 3d3e 58ec cd3c bf44 273e 43c9 1e3e
00000030: ce4a a73c 07f7 4a3e c8ad 823d a83a 6b3d
00000040: 15de e83d ed00 89bd 6a91 163e 8358 563c
00000050: 039d 043d bbe4 c2bc 56fe 573e eea6 b4bd
00000060: 50e2 d83d be64 d3be 4eeb 1fbd c5be 243d
00000070: 3cf2 923c 23cf b13c 7796 173e d26a d43d
00000080: 1e50 ea3c 010b 053d 6fbb 473e 15e8 a43e
00000090: 9c27 863e 53b5 763e 3653 7a3e f8f9 b33e
000000a0: 2d7d 0b3e 63eb 1f3e 8e85 913e 8e12 123e
000000b0: 57b9 d43d 8eb8 b53d a4cf a33d e441 f73d
000000c0: e578 373e 13b5 f53d 33ce 163e 8efd 023e
000000d0: 349b 70bd 88b6 1d3e 63a2 373e 4cdb bf3c
000000e0: cfdd 4d3c 8368 8f3e 8ce0 143e 32c4 9b3d
000000f0: 366d 673d d7b1 323c 1c45 d8bc eba6 943d
00000100: 8dd1 e13d 0293 a0bd 3691 c23d bc27 81bd
00000110: 4422 58be cc59 0f3e 35f1 393e 7dfc 74be
00000120: 99a0 d3bb 6eb3 f33b 940b a73d 711c fb3d
00000130: ff86 5d3c 04e7 a13d 7324 603d f91e 183e
00000140: 09ac 433e 3150 b43d e99c 543e 781a 3c3e
00000150: 9e49 763e d819 863e fc57 383e 21ac 303f
00000160: a885 7c3e 9dd6 023d 78d0 873d 7076 313e
00000170: ceff 903d ba39 cdbd ba65 c739 7543 d13d
00000180: 31d4 c83d b8c4 d2bc 84a8 963d 8662 493e
00000190: b21c 453d 1e70 5d3d 8642 bb3d 137d 853e
000001a0: 603d 083e 97cd a63e df96 193d 97a3 343e
000001b0: 1b70 f63d 389d ed3d 0006 cd3d bfbc 1e3d
000001c0: 1875 a13e d121 633e ceae a73c e549 533d
000001d0: ae56 1e3f b729 6b3e 01e9 193e a7df 3f3f
000001e0: 83c4 463e 6093 0e3f a6e6 9b3e 2582 5e3e
000001f0: 8a4d 313e 11e9 023f 5e97 623e d238 813e
00000200: 7478 1b3e 0cd1 4d3d c114 c63d 65e1 883d
00000210: 48be 5fbd 8601 4dbd e191 883d 21c6 213e
00000220: ea92 1c3e 8cf7 333e a052 523e 93f6 a93d
00000230: 1377 e73c c009 67bc e8ed bb3d 8cb8 0d3e
00000240: e5dd 063e 09e3 943b d0fd 313e 8070 0b3e
00000250: 02ef 57be 9449 ea3d a79d bd3d 84b2 42be
00000260: 722e 153d 430f 05be 304f 75bd 1218 23bd
00000270: 53b9 913c 148b 77bd 90ba 153d d4b8 0c3e
00000280: dd15 443e 738b 0ebd 2a0f 0cbd b16d 793d
00000290: d1ce cebc b9ad 483e df9e dbbc 4e01 58bd
000002a0: 3d64 fb3b 57f2 d13c d85e 983d 3b19 cc3d
000002b0: 0dc4 fa3d e618 3bbc 8b41 f33d 7595 4bbd
000002c0: 11b5 e53c a796 d23d 8507 c0bc 9657 703e
000002d0: 5118 023e 82ed 4c3e 08d0 f03c 5f0c dfbc
000002e0: 7fe0 893e 8302 8abd 6f03 683e 6225 a23d
000002f0: 26ef 993e 058d 13be db96 f13c 0ae1 8d3d
00000300: 7492 f83d 6525 cdbc 9b72 2b3e 8a79 1dbc
00000310: 16d4 0fbe 3edb a2bd eb38 8d3d 1b42 fbbd
00000320: 1d30 263e c9cc b5bc 09c4 b3bd b844 61bb
00000330: 5252 3fbd 3e36 a33d 5c81 e53d fdf7 af3d
00000340: a3c7 5f3d cec5 57bc 8379 e2bc 2f07 5b3d
00000350: 6925 86be 4b51 06be f605 0b3e 6def 08be
00000360: 6113 98bc 1059 15be 0ced 3fbd b02e aebd
00000370: f47b da3d 1baa a23d 4a9c 9b3d 0e93 593d
00000380: ca27 933d f33e 503d cda4 e1bc bec2 c43b
00000390: 4edb fc3d 3021 b33c 5e9b 943d 76db d53e
000003a0: 8539 3f3e faf5 473d 3d21 fe3d eef3 c63d
000003b0: c2f8 26bd 256e 8dbd fa0e b73d b515 d33d
000003c0: 1597 ccbc c0e1 e7bd f870 373e 9815 323d
000003d0: c0fb 1fbe 7757 c13d 0f82 34bd ff80 a23d
000003e0: 8d21 943d f0aa 843d 2ac8 9a3d 5dac 3d3d
000003f0: 1040 463d da9d f13d 470b 2f3e d047 38bd
-0.00076199917 -0.026239183 0.18078572 0.091419935 -0.0432733 -0.026089009 0.06263123 -0.028968686
0.18533011 0.025137112 0.16334818 0.15506463 0.020421412 0.19820796 0.063808024 0.057428986
0.11370484 -0.0668963 0.14703909 0.013082626 0.0323763 -0.023790708 0.21093115 -0.08820902
0.10590041 -0.41287798 -0.039042763 0.040220995 0.017937772 0.021705216 0.14803492 0.10371937
0.028602656 0.032481197 0.19505094 0.32208315 0.26202095 0.24092607 0.24445805 0.3515165
0.1362197 0.15617137 0.28422207 0.1426489 0.10386913 0.08873092 0.07998589 0.120731145
0.17917211 0.11997428 0.14727096 0.12792036 -0.058741763 0.15401661 0.1793304 0.023419999
0.01256509 0.28009424 0.14538783 0.07605781 0.056500636 0.010906658 -0.026400141 0.072583996
0.11026297 -0.078405395 0.09500353 -0.06306407 -0.21106821 0.13999099 0.1815842 -0.23924442
-0.0064583537 0.007437161 0.08156505 0.12261284 0.013520955 0.07905391 0.05472226 0.14855565
0.19108595 0.08804358 0.20762981 0.18369472 0.2405152 0.26191592 0.18002313 0.6901265
0.24660361 0.031942952 0.06631559 0.17330337 0.07080041 -0.10020776 0.0003803203 0.102179445
0.09806097 -0.025728568 0.073563606 0.1966649 0.04812307 0.054062 0.09143548 0.26071987
0.13304663 0.32578728 0.037497398 0.1764053 0.12033101 0.11602253 0.1001091 0.03875422
0.31534648 0.22180869 0.020469096 0.051584143 0.6185101 0.22965132 0.1503029 0.7495064
0.19410901 0.55693626 0.30449408 0.21729334 0.17314735 0.5113688 0.22128054 0.25238663
0.15182668 0.05024819 0.09671927 0.066836156 -0.054624826 -0.05005028 0.06668449 0.15798236
0.15290418 0.175749 0.20539331 0.082989834 0.028255021 -0.014101446 0.091762364 0.1383993
0.13170584 0.0045436663 0.17381978 0.13617134 -0.21087268 0.11439815 0.092585854 -0.19013411
0.036421247 -0.12994103 -0.059889972 -0.039817877 0.017788565 -0.06043537 0.036554873 0.13742381
0.19148965 -0.034800958 -0.03419415 0.060895626 -0.025245102 0.1959752 -0.026809154 -0.05273562
0.0076718614 0.025628252 0.07439965 0.0996575 0.12244425 -0.0114195105 0.11877736 -0.04970308
0.02804044 0.10282641 -0.023441086 0.23470911 0.12704588 0.20012477 0.029396072 -0.027227579
0.2692909 -0.0673876 0.2265756 0.079172865 0.30065268 -0.14409263 0.029490879 0.069276884
0.12137309 -0.025042245 0.16742937 -0.009611497 -0.14045748 -0.079519734 0.06895622 -0.12268468
0.16229291 -0.022192376 -0.08777625 -0.0034373235 -0.046709366 0.0796933 0.11206314 0.08592222
0.054633748 -0.013169719 -0.027645832 0.053473648 -0.26200417 -0.13116948 0.13576493 -0.13372584
-0.018563928 -0.14584756 -0.046856925 -0.08504999 0.106681734 0.07942601 0.07598169 0.053118758
0.071853235 0.050841283 -0.027544403 0.0060046604 0.123465165 0.021866411 0.072561964 0.41768998
0.18674286 0.048818566 0.124086834 0.09714495 -0.040764578 -0.06905774 0.089384034 0.10306875
-0.024974385 -0.11322355 0.17914188 0.043477625 -0.15623379 0.09440511 -0.044069346 0.0793476
0.07232962 0.06477916 0.075577095 0.046306957 0.04840094 0.11797686 0.17094146 -0.04499036

arith.constant4 f4 [2, 128]
00000000: ce9d 063e 0594 efbd f484 a4be 8ac5 f4bd
00000010: 6fc8 91bd fd44 d7bd ae1e 9eba 2662 fd3e
00000020: 84aa 2c3d 9dbb fe3e 6c88 2c3c 18cb e3bc
00000030: bc1f 023e e850 45bd 090f 8e3e 13a8 cebd
00000040: cf82 d33d 0b04 35be 5efc 5b3e e799 093f
00000050: 20e6 1fbd 25af 55be 0c45 8a3e 2ff1 90bd
00000060: dc88 a4bc a3d4 123f e352 783e 7d98 fbbd
00000070: 3ad6 763e 38b9 073f 2508 363e feeb 873d
00000080: ff0d 1d3e 6e11 1c3e ecd4 47be de1b 233e
00000090: de55 cc3f 3527 ab3d 7e90 61bd 948d 323d
000000a0: d767 4ebe d4f1 653d fc15 ff3c 9f3c 093f
000000b0: 087f 79bd a28a eebd 0bdc 0a3f 36f5 143e
000000c0: b641 f5bd e274 4f3e 2b79 22be e3d3 c1bc
000000d0: d425 04be 0741 ccbd 874c 163e e9b0 08bd
000000e0: 4d7d 933d f1a9 17bc 2fb8 20be be3a 043e
000000f0: 8215 cb3f d156 0dbe ea3c cebc 19b6 bdbc
00000100: 81c3 043e 4de8 69bd b71e 19be 7d40 0dbd
00000110: 71ab 00bd 7f03 15be 286f a8bd a41e 05bd
00000120: f272 a73d 6753 f13d 642c 0ebe f5b0 ee3d
00000130: 190c 203e 53c5 0bbe f026 cabd c042 433e
00000140: 5a32 ef3d 391a bdbd 64f3 7abd d036 f63e
00000150: d6ad 4bbf be64 22be 5569 543e a38d 033e
00000160: 5156 323e 4971 d2bd c347 463e 48c7 9e3d
00000170: 673d 0bbe 3fd3 23be aa5d 483e aabb a83d
00000180: bea4 0b3f 2f63 9fbd 4846 adbd 8dff eebc
00000190: ccc1 3cbe e390 093e 9f0c 5e3d 76c3 be3d
000001a0: 2a3f 22be c5f0 18be 200b 63bc 1523 d5bd
000001b0: 4f85 2b3e 3e99 1b3e 7964 063f 572f 99bc
000001c0: 72c8 113e 71dc 403f 8017 23bd 1c1c ddbd
000001d0: cb04 493e 63fd 27be bc18 033d 9008 a13d
000001e0: da84 243c dce8 ebbd 0719 003e 0c8f 0c3d
000001f0: 90e3 3cbe 9b25 24bd e2ce 9fbd feec b5bf
00000200: 34ee 113e a205 a53d 1f0f 653f c45c 033d
00000210: e056 153f 8752 2e3f 7b2f 91bd 4c38 9c3d
00000220: c0cc bfbc d5dc 823d 40a7 253f e036 f8bc
00000230: ffb2 1ebe f41f 32bd a5c6 013e 9ef6 13be
00000240: 5ac0 0f3f c4dd 04bc cc4b bc3e f9c6 83bd
00000250: 0c44 163d 9335 eebd 33e1 d33d 2838 153f
00000260: a8b9 f7bd be27 3cbd 0d2f 253e d65e 463d
00000270: 5a26 073e abef 38bd 33b2 1bbe 0a8e 40be
00000280: e9bd 063e 0a1c 253e 635f 323e 3150 b23e
00000290: ccbe adbf d967 003f c150 773d 94e4 48be
000002a0: 1f48 3fbd e63f ba3d 0400 1cbe f055 a13d
000002b0: b10a 083f f497 99bd 6c6a 053c 9819 043e
000002c0: d640 a23d ba4b 293e f9cd dbbd 290a 2a3f
000002d0: 448d 2fbd 5e1a d6bb e4f4 1b3e 637a 3a3f
000002e0: 1b8e e5bd 65ce 03be 459d 4fbe e48d 183e
000002f0: b5b4 143f ee98 1abe 409b 3fbe 922f 31be
00000300: 8e82 ec3d cf77 3fbe f69d fbbd 0157 15bb
00000310: dd92 173e 48ca 6d3d 2c29 87bd cff6 44bd
00000320: 1779 e5bd ab65 c53e 6275 28be 1d89 04be
00000330: 58d2 16be a024 a53c 6ccc 77bd 5940 363e
00000340: 16ac 33be b1b6 343d 66af b0bd 9dd9 b0bd
00000350: 7a49 113f 2f24 223e 2016 23bd db2b 2a3e
00000360: 819f 3ebe 5919 273f ca79 c0bd 77ac ee3d
00000370: e03b dc3b 2da6 973b 4e2d e63d db6a 4cbe
00000380: c527 51bc 14f8 3cbd ef2e 0a3e 4eae 22be
00000390: 0825 20be aab8 f7bd bc45 38be 3c62 4ebc
000003a0: 504f 05be b62e f93d 77bc ecbd 1f6e aabd
000003b0: b5b2 6d3e bf17 0c3e c09b 07bb a47c 6bbd
000003c0: 676d 083e 4e90 ecbe bb8f 203f 57ee 41bd
000003d0: 0408 153d fbb5 97bd 414e 133e 54e1 153f
000003e0: 55a1 223d ea1d cdbc 0c31 5d3d 6c0d 0bbd
000003f0: cf1c 40be 8a3a 23be 47ec eebd 36b9 823f
0.13146135 -0.11698154 -0.32132685 -0.1195174 -0.07118308 -0.10511205 -0.0012063587 0.49488944
0.042154804 0.49752513 0.010530572 -0.027806804 0.12707418 -0.04817286 0.27745846 -0.10090651
0.10327684 -0.17677324 0.21482989 0.5375046 -0.039037824 -0.20867594 0.27005804 -0.07077252
-0.02008479 0.5735571 0.24250369 -0.12284944 0.24105158 0.53016996 0.17776544 0.06636809
0.1533737 0.15241024 -0.19514817 0.15928599 1.5963705 0.083570875 -0.05506944 0.04359205
-0.201568 0.05613883 0.031138413 0.53608125 -0.060912162 -0.11647536 0.5424201 0.14546666
-0.11975424 0.20259431 -0.15866534 -0.023660606 -0.12905055 -0.099733405 0.1467763 -0.03337184
0.072016336 -0.009256826 -0.1569526 0.12913033 1.5865939 -0.13802649 -0.02517553 -0.02315812
0.12965204 -0.057106305 -0.14953123 -0.03448533 -0.0314135 -0.14552115 -0.08224326 -0.032499924
0.08176221 0.11783486 -0.13884121 0.116548456 0.15629615 -0.13649492 -0.09870708 0.19068432
0.11679526 -0.09233517 -0.06126727 0.48088694 -0.7956213 -0.15858743 0.20743306 0.12846999
0.1741574 -0.10275514 0.19363312 0.07752854 -0.13597642 -0.15998553 0.1956698 0.08238919
0.5454825 -0.0778259 -0.08460671 -0.02917459 -0.18433303 0.13434176 0.054211255 0.09314625
-0.15844408 -0.14935596 -0.013857633 -0.10407082 0.16750072 0.15195176 0.5249706 -0.018699331
0.1423662 0.75336367 -0.039817333 -0.10796377 0.19630735 -0.16405253 0.03200601 0.07862961
0.01004144 -0.11519024 0.12509547 0.034316108 -0.18446183 -0.040074926 -0.07803132 -1.4212949
0.14251024 0.08057715 0.894762 0.03207089 0.58335686 0.68094677 -0.07089134 0.07627925
-0.023413062 0.063897766 0.6470833 -0.030299604 -0.15497969 -0.043487504 0.12673433 -0.14449546
0.5615288 -0.008109514 0.36776578 -0.064344354 0.03668599 -0.11631312 0.10345688 0.5828881
-0.12095958 -0.04593634 0.1613123 0.048430286 0.13198224 -0.04515044 -0.15204696 -0.18804184
0.13158382 0.16123977 0.174192 0.34826806 -1.3573852 0.5015846 0.060379747 -0.19618446
-0.04669964 0.09094219 -0.15234381 0.078777194 0.53141314 -0.07499686 0.008143049 0.12900388
0.07922523 0.16532794 -0.107326455 0.66421753 -0.04285933 -0.006533905 0.15230137 0.72843
-0.11208745 -0.12871702 -0.20274837 0.14897877 0.5808824 -0.150974 -0.18711567 -0.17303303
0.11548339 -0.18698047 -0.12285988 -0.0022787454 0.14802118 0.05805424 -0.0659965 -0.048086938
-0.11204737 0.3855413 -0.16451028 -0.1294293 -0.14728677 0.020159066 -0.060497686 0.17797984
-0.17546114 0.04411954 -0.086272046 -0.086352564 0.5675274 0.15834115 -0.039816022 0.16618292
-0.18615533 0.6527305 -0.093982294 0.11653989 0.006721005 0.004627964 0.1123911 -0.19962637
-0.012765829 -0.046135023 0.13494466 -0.15886804 -0.15639126 -0.12095769 -0.17995352 -0.012596663
-0.13018537 0.121671125 -0.11559384 -0.08321785 0.23212703 0.13680933 -0.00206922 -0.057491913
0.13322984 -0.46203846 0.62719315 -0.04734644 0.036384597 -0.07407757 0.1438532 0.5854695
0.03970464 -0.025038678 0.054001853 -0.033948347 -0.1876099 -0.159403 -0.1166616 1.0212772

arith.constant5 f4 [128, 64]
00000000: 7f83 e5bc 2cd8 13be c582 643e 89c7 343e
00000010: 4b1a 8e3d 54c8 933c d420 753e dab8 543c
00000020: 7149 fdbe 07ae 5b3d 5007 1c3e ea39 713e
00000030: d40d 3cbd 806e 1e3e cdd0 2f3d f965 9d3f
00000040: 0e28 833e 4e3c dd3e e690 64bd b8e4 7a3e
00000050: 3aa2 b43d e18c 3c3e 6ea7 893d f6fb 023f
00000060: 0ffb 53bb d91e 3f3e e80e 8a3e 908c 453e
00000070: 9502 863e 35ff 953e c9eb ba3d 3cd9 3cbc
00000080: 1977 29bf 55d2 9abd 6472 ecbb e0f7 ce3d
00000090: 7355 9bbf 888f a8bc 7f00 d43d 3505 5e3e
000000a0: b0a0 e0bd 0c43 2e3e ce32 8c3e c1d4 0b3e
000000b0: e361 2e3e a578 f63d 2978 5e3e 72d9 363e
000000c0: 1168 1f3c 2e3d a6bc 97ba 8bbd dba8 a93d
000000d0: 3673 883e d19d 5dbd 644c 8a3e 8a2d 26bf
000000e0: f4ae e6bf 78b7 50bd 800c 433e a39c 773e
000000f0: 16fa 04be 2ef2 95bc b956 903e ec8c fb3d
00000100: 9c8f 22be 747d da3d 7b4f b6bd 43b8 ed3d
00000110: f5f8 11be b0c9 9d3d f5e2 07be c9a5 bbbd
00000120: 753c 8e3d 8be5 00bc 873e 04be 9f30 11be
00000130: 9587 03be 401f d1bd 5584 b5bd 1f2c b93d
00000140: 4936 97bd c3ff d83d cafb 40bc 7b15 5dbc
00000150: 8933 06be d4dd 393e bc3b ee3d 34aa cf3d
00000160: 0dbe c33c 772b 20be af64 c7bd d9d8 063c
00000170: a2f2 483d 5ff6 61bd 1a26 02be 32a8 a0bc
00000180: 8dcc 4a3d d7c7 84bd 5cdf ddbd c64c c93d
00000190: 6c15 953d 5d13 3bbd c75e 283e b24f cb3d
000001a0: 0088 8abd 1d89 dd3d ed1a 1bbe 0781 0abe
000001b0: 279d 0abe 7c68 29bc a52b 6cbd 87dc e8bd
000001c0: 7faf 233d f84a c53d 6adf 0cbe cfc8 2c3e
000001d0: f7ad b63d b6e3 de39 56c7 e2b9 d28c 0dbe
000001e0: 4990 e7bc e73a cf3d b406 eb3d 8a1d db3d
000001f0: b645 5c3d 1fd8 f43d 457f ebbd 1dec 6fbd
00000200: c2d5 1cbe 5dc6 8f3d 8914 2e3e d603 6cbc
00000210: 6659 ddbd 1356 c03c 53b4 c3bc b310 6b3d
00000220: 2add 52be 5375 c53d 3091 74bc cded 0bbd
00000230: 2782 893d 1bfd c53d 1d88 c0bd 1464 1240
00000240: 403d 193d 9685 95be acce d33d 369a 2b3b
00000250: 0d00 803e fa79 11be 4659 e93c cf5a 7e3e
00000260: 765e d4bc 84c9 a2bd 1f7b 08bd d7c1 d33d
00000270: 97f9 b5be d887 ddbc 41f6 343e fd8b a33e
00000280: 018e c4bf f5e8 0cbc ed01 ebbc 12ed 763e
00000290: a563 7abe bc9e fd3d c682 d3bd d586 23be
000002a0: e69d c13f de15 9f3d a3cc 293d c710 ffbc
000002b0: c3c6 21be 9107 85bd 9023 fb3d 64ec 95bb
000002c0: 4926 b03d 76e4 703c fe4a 2c3e a5ab 253e
000002d0: 814d 9c3c d25f d63c 0083 283e 2905 4bbf
000002e0: c97f 0ec0 1953 4d3e 2e02 c6bd 92b1 883e
000002f0: 83df 6abd 9826 503e c754 dabd 86a4 b43d
00000300: 2cf7 3cbc 59d2 233e f0ae 393d 9954 83bd
00000310: 8fc7 903c 357c 3abe a1fe 38bd 090f 053e
00000320: 67c4 d9bd b429 3c3d dbae 853d 9954 cc3d
00000330: ca21 27be d572 6b3d 685e d6bd 9765 7c3d
00000340: 55ee 0fbd cf00 c63d 154b 1ebe 9d6e e63d
00000350: 2d20 9a3d fea1 703d c15d 66bd 2cba a2bd
00000360: d668 fdbd 5131 06bc 8cd0 b9bd 7648 9abb
00000370: 6412 2b3d a9de fc3d 80f7 19be 27aa a6bb
00000380: d40d 43bd dc5e 75bd ccff 5c3d 3a6a 10be
00000390: ffce 1e3e c0de 6e3d 6680 3abc 2672 9dbd
000003a0: 9252 87bc 4d13 a73c 6eba 3f3d 84b1 123e
000003b0: 68e8 89bc 2cc4 c63d 8d05 2abe e1d1 f7bc
000003c0: 7e48 163e 700b d0bd 824d 213e e534 993d
000003d0: 5021 253e 419f f43b cb86 77bd 2eda 1cbd
000003e0: f58f 36be 97d7 3ebc 1d13 36bd 37aa 643a
000003f0: 98b8 8bbc 33aa dfbd e4f9 a9bd 92ae 01be
-0.028016804 -0.14437932 0.2231551 0.17654242 0.06938609 0.01803986 0.23938304 0.012983525
-0.49470094 0.053632762 0.15237164 0.23557249 -0.045911625 0.1547184 0.042923737 1.2296745
0.25616497 0.4321007 -0.05580225 0.24501312 0.08820005 0.18413116 0.06721388 0.5116571
-0.0032345688 0.18664111 0.26964498 0.19291902 0.26173845 0.2929627 0.09127004 -0.011526402
-0.66197354 -0.07559649 -0.007215785 0.10105872 -1.2135452 -0.020576254 0.10351657 0.21681674
-0.10968149 0.17017764 0.2738251 0.13655378 0.17029528 0.1203473 0.21725525 0.17856386
0.009729401 -0.020292845 -0.068226986 0.0828416 0.266504 -0.054105584 0.27011406 -0.6491324
-1.8022141 -0.05095622 0.19047737 0.24180846 -0.12986025 -0.018303957 0.28191164 0.12282738
-0.15875095 0.106684595 -0.089018784 0.11607411 -0.14255126 0.077044845 -0.13270171 -0.091624804
0.06945125 -0.007867227 -0.12914477 -0.14178704 -0.12844689 -0.102110386 -0.08863131 0.090416186
-0.07383401 0.10595658 -0.011778781 -0.013493891 -0.13105597 0.18151027 0.11632487 0.101398855
0.023894334 -0.1564158 -0.09736001 0.008230411 0.049059518 -0.0551666 -0.12709847 -0.019611452
0.04951148 -0.06483429 -0.10833618 0.098290965 0.072794765 -0.045672763 0.16442405 0.0992731
-0.06764221 0.10817168 -0.1514699 -0.13525783 -0.13536511 -0.010339852 -0.05765881 -0.11370187
0.039962288 0.0963344 -0.137571 0.16873477 0.089199 0.00042512798 -0.00043254596 -0.1382325
-0.028267043 0.101186566 0.11475888 0.106989935 0.05377742 0.11955284 -0.11498884 -0.058574785
-0.15315917 0.07020257 0.17000021 -0.014405211 -0.10808067 0.023478543 -0.023889696 0.057388972
-0.2059218 0.096415184 -0.0149271935 -0.03416233 0.06714278 0.09667417 -0.094009615 2.2873583
0.03741193 -0.2920348 0.10342154 0.0026184446 0.2500004 -0.14206687 0.028484952 0.24839328
-0.025923949 -0.07948592 -0.033320542 0.103397064 -0.35541984 -0.027042314 0.17672063 0.3194274
-1.5355836 -0.008600463 -0.028687442 0.24113873 -0.24452074 0.12383792 -0.103276774 -0.15969403
1.5126312 0.07767843 0.041454922 -0.03113593 -0.15798478 -0.06495584 0.122626424 -0.004575299
0.08601052 0.014702907 0.16825482 0.16178758 0.019079925 0.026168738 0.16456223 -0.7930475
-2.2265494 0.2005123 -0.096683845 0.26697975 -0.057342064 0.20327222 -0.10660701 0.08820443
-0.01153354 0.1599821 0.04533285 -0.0641262 0.017673282 -0.18211444 -0.045164708 0.12994017
-0.10633164 0.04593821 0.06527492 0.09977073 -0.16321483 0.05748256 -0.10467225 0.06162032
-0.0351394 0.09668123 -0.15458329 0.112515666 0.07525668 0.058748238 -0.056241754 -0.07945666
-0.123735115 -0.008190469 -0.0907298 -0.004708345 0.041765586 0.123471566 -0.1503582 -0.0050862017
-0.04762061 -0.059904918 0.053954884 -0.14103022 0.1550865 0.0583179 -0.011383152 -0.07687788
-0.016518865 0.020394946 0.046808653 0.1432553 -0.016834453 0.097053856 -0.1660368 -0.030251445
0.14676091 -0.101584315 0.15752223 0.07480792 0.16125989 0.0074652736 -0.060431283 -0.03829401
-0.17828353 -0.01164808 -0.04445182 0.0008722874 -0.017055795 -0.10921135 -0.08299616 -0.1266425

arith.constant6 f4 [2]
00000000: 2e85 0940 b8a8 c13f
2.1487536 1.5129614

arith.constant7 f4 [128]
00000000: d523 46bc b07a 213c 906c 40bc 55c9 c4bb
00000010: a228 fa3c ad6d 6e3d 61c7 c4bb 0d19 873d
00000020: 0000 0000 b69f 863d f346 b33c 0000 0000
00000030: 72a1 c7bc 0000 0000 3d99 853c adc7 c4bb
00000040: 0d0a d83c 83c8 c4bb 3b37 783d 8f7f 1f3e
00000050: 0000 0000 3a74 1fbc ff32 a23b 5540 113d
00000060: 359d 1dbd dd13 b73d 4bb1 193c 702b f6bc
00000070: 56d5 4b3d 0a1e e83d 0000 0000 ad3b 9cbc
00000080: 38c7 ec3c c864 233c 0000 0000 1a4d 9b3c
00000090: 8750 953d 0da7 d23c ddb4 f3bc 0000 0000
000000a0: 73c9 c4bb 0000 0000 2184 c7bb 9c15 793d
000000b0: d476 d13c 1433 05bd 7cb8 d83d a330 a23a
000000c0: 2a37 6bbc fc8a 083d f743 a5bc 6228 9e3d
000000d0: e135 afbb 3094 22bd 5be3 003d e67a 403b
000000e0: 38f3 25bd 74c9 c4bb 0000 0000 2987 02bd
000000f0: a157 ab3c fbcf 42bc 10d7 a6bc 75c9 c4bb
00000100: ab76 f3bc 44a2 07bd 9f1f bebc cf45 71bc
00000110: 6ff4 febc bae5 02bd 6bc9 c4bb 6dc9 c4bb
00000120: 0000 0000 cb89 373d 4850 8dbc 890c ccbc
00000130: 9218 82bc 0000 0000 0000 0000 8493 893c
00000140: 0000 0000 9ec0 babc c2c6 59bc a653 313e
00000150: 467f f7bc 06d7 12bd 0000 0000 ea95 34bc
00000160: 74c8 c4bb 9ff7 aa3c 0000 0000 3d90 f9bc
00000170: 0000 0000 fe26 b6bb 85e0 00b9 0000 0000
00000180: c737 ff3d b929 d5bb 36ed 38bd f29b 07bc
00000190: 3915 82bc 0000 0000 357c 30bb 9566 79bd
000001a0: ca64 5ebc a2fa 52bc 2116 8abc 0ee2 eabc
000001b0: 7476 a2bb 4cf2 093d 66d0 113e a7b5 09bc
000001c0: dc95 d4bc 8451 583e 0bf9 9a3d 6e73 37bc
000001d0: 0000 0000 caf5 00bd c462 dfbc 49d6 033d
000001e0: 72fc f8bc c873 05bc 0000 0000 0000 0000
000001f0: e235 9bbc 5222 a8bb 4042 86bc 94de c6bb
-0.012093504 0.009855911 -0.011744633 -0.006005446 0.030536953 0.058210064 -0.006005213 0.06596575
0.0 0.06573431 0.021884417 0.0 -0.024368975 0.0 0.016308421 -0.0060052485
0.02637198 -0.006005348 0.060599547 0.15576003 0.0 -0.0097323 0.004949927 0.035461742
-0.038480002 0.089393355 0.009380649 -0.03005001 0.049764 0.113338545 0.0 -0.019071424
0.028903589 0.009972759 0.0 0.018957663 0.0729075 0.025714422 -0.029749328 0.0
-0.00600546 0.0 -0.006088749 0.060811624 0.025569357 -0.032519415 0.105820626 0.0012374114
-0.014356414 0.03333567 -0.02017401 0.07722546 -0.005346999 -0.039692104 0.031466823 0.0029370128
-0.040515155 -0.0060054604 0.0 -0.03186718 0.020915808 -0.011890407 -0.020366222 -0.006005461
-0.029719671 -0.033113733 -0.023208437 -0.014726116 -0.031122414 -0.031957366 -0.006005456 -0.006005457
0.0 0.044809144 -0.017250195 -0.024908321 -0.015880857 0.0 0.0 0.016793974
0.0 -0.022796925 -0.013292016 0.17317066 -0.030212056 -0.035849594 0.0 -0.01102207
-0.006005341 0.020870028 0.0 -0.030464286 0.0 -0.0055588474 -0.00012290671 0.0
0.124618106 -0.006505218 -0.045148097 -0.008276926 -0.01587926 0.0 -0.0026929502 -0.060888845
-0.013573835 -0.012877138 -0.016856255 -0.028672244 -0.0049579684 0.033678338 0.14239654 -0.008405126
-0.025950365 0.21124846 0.075670324 -0.011196954 0.0 -0.031484403 -0.027268775 0.03218678
-0.030393813 -0.00814528 0.0 0.0 -0.018946592 -0.0051310444 -0.016389012 -0.006069014

CNN_Regressor_1/conv2d_1/convolution f4 [16, 3, 3, 1]
00000000: e91b 0dbd 768d b0bd b515 9cbd e13c 68bd
00000010: b6cd 1ebe f8dc 47be 7867 cfbc 7816 983f
00000020: a8c3 87bc 861b 94bd 126a 62bc 2dae d53f
00000030: 9002 c33f fd6e 47be ab3c c23f be29 1d3f
00000040: 504b 08be dd77 53bb 2936 35bd b8f2 a1bd
00000050: 5fe2 b1bd 7103 bbbd 3f9b acbd f748 babd
00000060: c126 38be 3a34 cdbd 4e77 afbd 3ff3 56bd
00000070: 79cf b6bd 5241 79bb 3829 843f f848 38bd
00000080: 65e3 eb3f 9cc3 3dbd 9723 3ebd bfeb eb3f
00000090: 5b93 1740 24f2 20be eb9f eebd 5844 9abc
000000a0: 61d9 433f fc1f 41be fe6f d73f e20a 25be
000000b0: 30e9 e23f 0d6b e7bd 371e b8bd 205c f5ba
000000c0: c4ca 6dbb 31f8 cc3f a2f7 2cbb 82e2 45be
000000d0: 58e8 ccbc e38a fd3f c06c 2bbe 2064 b1bd
000000e0: a2cd 8ebd 674d 1fbe 12b5 babd b77d 9e3c
000000f0: 8001 44bd ff39 6a3f b0bb d9bd 4ddf 88ba
00000100: 2b45 f13f 58fd 42bd 4000 63bd af74 e9bd
00000110: 5ff2 12bc 90fc cd3f 0f72 9a3f 2211 2640
00000120: f290 8abb 27b4 c4bb d43a a9bb 26eb 9bbd
00000130: ba82 353f 3db2 f13f cd5f 58bb 2a21 363f
00000140: e8ad 0440 aef4 cfba 3544 32be 5ed5 0c40
00000150: afec 0040 7855 7dbd a089 e03f 6e89 8cbd
00000160: 34c0 963f 0cb7 42be 800c 55bd 8c1f 92bd
00000170: 70ac 63bc 64a7 79bd 5d71 513f 5326 9e3f
00000180: 0742 413f 00f6 28bd a8f4 f43f 00d2 37be
00000190: 6df9 edbd e86d 0840 7726 973f 7e1a b4bd
000001a0: a092 30be 83db 473f 4c15 22be b074 be3f
000001b0: ae8c 3fbd a82a edbd d6ec 5ebb 2a22 c23f
000001c0: 802e 17be e7fb 9d3f 50ff 3ebd 6192 11be
000001d0: 08e0 2cbe dd49 2a40 379e 863f c281 02be
000001e0: aa55 cebc 3e66 06be 5538 f1bd c012 55bb
000001f0: d584 993f 334b 2dbe fbca 0540 1225 0ebe
00000200: a8d9 d7bc 6167 0cbd 78ff 78bd f64a 8f3f
00000210: 6b54 2dbb d75e e63e 3c7c 8cbd 2872 4dbd
00000220: 9643 fdbc 90f7 fa3e dbf7 913f 020f fabc
00000230: 8716 2ebe 26a4 13be a247 663f 7cec 9bbd
-0.034450445 -0.086207315 -0.07621328 -0.056698684 -0.1550816 -0.19517887 -0.025317892 1.1881857
-0.016572788 -0.07231812 -0.013819234 1.6693779 1.5235157 -0.19475932 1.5174764 0.6139182
-0.1330998 -0.003226749 -0.044241104 -0.07907623 -0.08685755 -0.09131516 -0.08428048 -0.09095948
-0.17983533 -0.10019727 -0.085676774 -0.05247807 -0.08926291 -0.0038033319 1.0325079 -0.044991463
1.842877 -0.046329126 -0.04642066 1.8431319 2.3683689 -0.1571737 -0.11651596 -0.018831417
0.7650357 -0.18859857 1.6831052 -0.16117433 1.7727413 -0.11299715 -0.08990138 -0.0018719472
-0.0036284188 1.6013242 -0.0026392718 -0.19324687 -0.025013134 1.980801 -0.16740704 -0.086616755
-0.06972815 -0.1555687 -0.09116568 0.019347055 -0.047852993 0.91494745 -0.10631502 -0.0010442525
1.8849233 -0.04760489 -0.05542016 -0.11399209 -0.008968919 1.6092701 1.2066058 2.5947957
-0.0042287046 -0.006002921 -0.0051644836 -0.076132104 0.709026 1.8882519 -0.0033016086 0.71144354
2.0731144 -0.0015865767 -0.17408831 2.200523 2.014446 -0.061849087 1.7542 -0.0686215
1.1777406 -0.1901514 -0.052013874 -0.07134923 -0.013896093 -0.06095065 0.81813604 1.2355446
0.75491375 -0.04125023 1.9137163 -0.17951202 -0.1161984 2.1317081 1.1808614 -0.087941155
-0.17243433 0.78069323 -0.15828437 1.487936 -0.046765022 -0.11580402 -0.0034015677 1.5166676
-0.14763832 1.23425 -0.046630204 -0.14215995 -0.16882336 2.6607583 1.0517033 -0.12744811
-0.025187332 -0.1312494 -0.117783226 -0.0032512397 1.1993662 -0.16923217 2.090514 -0.13881329
-0.026348904 -0.034278277 -0.06079051 1.1194751 -0.0026448022 0.44994232 -0.06859633 -0.050157696
-0.030916017 0.49017 1.1403764 -0.030524734 -0.17000781 -0.14418086 0.89953053 -0.07613465

CNN_Regressor_1/conv2d_1/Relu;CNN_Regressor_1/conv2d_1/BiasAdd;CNN_Regressor_1/conv2d_1/convolution;CNN_Regressor_1/conv2d_1/Squeeze f4 [16]
00000000: b54f 8f3d a216 cc3b 6bd7 a03d b665 453d
00000010: 1e6d 0fbb ae00 2e3d 6094 9b3d 591d 123b
00000020: 0df0 783d 81df babc df99 7d3d f872 7a3d
00000030: bf7a 273d c6b8 cc3b 2095 e63c 2d1b 8b3d
0.06997625 0.006228284 0.07853588 0.048192702 -0.0021885107 0.042481117 0.0759666 0.0022295325
0.060775805 -0.022811653 0.06191432 0.0611448 0.040888544 0.0062476126 0.02814728 0.06792293
